macauff/tests/data/dd_params.npy (npy, 1488 bytes, 1 tensors)

array f8 [5, 17, 2]
0	0x3ffc7adea8988052	1.7799975000161976
1	0x4043fb5a984bb59a	39.96370223709819
2	0xc0038019672e9113	-2.437548452480891
3	0xc06bdcac72457cee	-222.89605058261753
4	0x40251eb7f0d32e84	10.559997106341378
5	0x40758d95387e120a	344.8489308285358
6	0xc0387431883c627c	-24.45388080095516
7	0x404c6fa6bee8d02a	56.87227617614583
8	0x401e516047e4a6c3	7.579468844729209
9	0xc07179a7782ad763	-279.60338608488945
10	0x4034cfdac95b3467	20.811932167784473
11	0xc06ddf78af972b25	-238.98348216557602
12	0x401e0593ca4ca468	7.505446587493772
13	0x404910862bfcd007	50.129094599193245
14	0xc026f6c4c1d093f2	-11.48196988745801
15	0x40720ba97772cbd8	288.72887368051806
16	0xc0379e9c51611fcd	-23.619572721683472
17	0x407239f384695fbf	291.62195244943354
18	0xc03b1ec5bb53e775	-27.120204647049338
19	0x4051d8503913d463	71.3798964208268
20	0xc038d10971103e44	-24.816550318208343
21	0xc06ace0d3c9a3dc5	-214.43911581158878
22	0xc033f42231f32638	-19.953646776068325
23	0xc077332216639443	-371.1958221330462
24	0xc02d6f49f6a3f14a	-14.717361171257512
25	0xc07114eb94dcd397	-273.30751501331673
26	0xc0245d476b0995d0	-10.182185501976079
27	0x404de8bdce5a7e80	59.81829242151889
28	0xc01abaeefc4a0089	-6.682552282349328
29	0x407a9e2f0ed75f0c	425.88648876313596
30	0xc010b0bc27f11c75	-4.172592758265741
31	0x407b3facf7f3e0a8	435.9797286535709
32	0xc003b1be021fcf40	-2.461788193317176
33	0xc07cfe75bbb94437	-463.90374348039353
34	0x40068b0362f2c5a3	2.8178775530183926
35	0xc066fc11d09e0628	-183.87717467178413
36	0xc0441cc9d86eb94d	-40.22490983396947
37	0x408ae4546d7a2748	860.541224436115
38	0x4071a64b005c8365	282.39331089151375
39	0xc090622f009aa383	-1048.5459007417965
40	0xc08b303ee0510e0b	-870.0307012874995
41	0xc07419c7cbebb611	-321.61127845835387
42	0x408eba0d34135cfb	983.256446982646
43	0x4084f2a7fedf642d	670.3320290996977
44	0x40784503a8b78f28	388.3133933229715
45	0x408575312b57710b	686.6490084487317
46	0xc086ca15c302e15d	-729.2606258606935
47	0x403ed2b82623e976	30.823122390525405
48	0xc08c1c42e404ae4f	-899.5326614728637
49	0xc08190f648b45868	-562.120255860279
50	0xc0733a2a72b0b468	-307.6353632833984
51	0xc08461ead9a01eb4	-652.2396729001398
52	0x407ac69f81a92a71	428.4139420135535
53	0xc07035ccd5a1ba65	-259.36250842261353
54	0x408d305e0764a841	934.0459125388953
55	0x40725cf0121e1c3d	293.8086110283073
56	0x4091abb8b2eca120	1130.930370042166
57	0x4083a70cacd6eaa6	628.8811890402183
58	0x4091183b45efacff	1094.0578839730586
59	0x40802bdecba406bf	517.483786851364
60	0x408d1d2b1c6ab18d	931.6460502944407
61	0xbffd963fc5f66c0b	-1.849181912700035
62	0x4086c998031d9be6	729.19922469265
63	0xc0828c6f5b7bab93	-593.5543737088905
64	0x4080ca8741898366	537.3160429709649
65	0xc08494122ab0e4a1	-658.5088704890987
66	0x4077a5c27c9dc966	378.35998212466654
67	0x4082a08c34e440f8	596.0684602577521
68	0x3fe2a1b4b1f7d2c6	0.58223948249232
69	0x4081efab8b537d50	573.9587618372552
70	0x40477f071b7d0759	46.99240439991872
71	0xc0a620dde9fbc01c	-2832.433425776673
72	0xc07629664055a9f7	-354.58746369802924
73	0x40ad8d7e58942ba4	3782.746769552543
74	0x40912637881fdbad	1097.554230211051
75	0x408c4a7158add61b	905.3053449231114
76	0xc093703e7a706f99	-1244.0610139434923
77	0xc0a512be82602ded	-2697.3720884376585
78	0xc07eaf61b849c7e9	-490.9613573915545
79	0xc0a3868da3a98b18	-2499.2766392690937
80	0x408cdb1090e9457f	923.383088896211
81	0x406b01e99f273a87	216.05976827298966
82	0x4091cd57e44a56c6	1139.3358317962134
83	0x40a3af34976e2b03	2519.602717821837
84	0x407862ef44db246c	390.1834152755971
85	0x40a4d6638c4fa603	2667.194429863944
86	0xc080f0ce3589ac58	-542.100688052723
87	0x4088fc7c2bdca4a2	799.5606305349104
88	0xc0927be4d86054d9	-1182.9734816600596
89	0xc099ec0e2f1a9a2a	-1659.0138515621752
90	0xc09663528b0c83d9	-1432.8306085544084
91	0xc0a7a7cff2234871	-3027.906144239991
92	0xc095a99cbbb12347	-1386.4030597379476
93	0xc0a1d8085eb51d09	-2284.0163475606864
94	0xc09272d4308ac994	-1180.7072164235624
95	0x4076a37fd47c33be	362.218708501019
96	0xc08ce0dc2af68003	-924.107503820211
97	0x40a96a1b65a06ea8	3253.0535097251013
98	0xc085464dee141630	-680.788051754882
99	0x40aa3e8ffda75e1b	3359.2812320997596
100	0xc07df271f3ca411a	-479.1528203869399
101	0xc0ab00729f7629ae	-3456.2238728452567
102	0x4000dda06b9ffa83	2.108216133899363
103	0x405dad268e927de4	118.70547832780682
104	0x3fd8e9b473e086cb	0.38926421466940714
105	0xc08299bdae1f547d	-595.217617268339
106	0xbfff458855f6122f	-1.9544757230625114
107	0x4089bd792867b8a9	823.6841590979794
108	0x401046c2014d4d96	4.069099445670323
109	0x4067805aec89b0fb	188.01109911816442
110	0xbff7aa79b40c8a42	-1.479119971577021
111	0xc08314dbd4a068bf	-610.6073391468016
112	0xc00f30993fce43ff	-3.8987297997305173
113	0xc08197df23cb6a0b	-562.9839549915063
114	0xbffa5935db2b9079	-1.6467798768362896
115	0x404d4982cba92789	58.5743040634107
116	0x3ffbd985fac6fa6c	1.7406062885271707
117	0x4082860af2a30915	592.7553456055781
118	0x401022a29350bb51	4.03382330112693
119	0x4083aba5df99219d	629.4559928859122
120	0x40135f75f1a2e640	4.84322335774192
121	0x40678e74bc80e8df	188.45175004174868
122	0x401272b4aa944d51	4.612017312337529
123	0xc07922cdf7282cb2	-402.17528453534317
124	0x400f1be9e438e275	3.888629706369381
125	0xc08718ea52847955	-739.1144152020958
126	0x400874c28a6b1999	3.057011681931908
127	0xc081a13b979a7b74	-564.1540977543759
128	0x4002850757b229db	2.314955411076182
129	0x40556c72db2caf64	85.69451026309758
130	0x3ffbb4e60abc0662	1.7316646975817993
131	0x408952854827bda4	810.3150790314435
132	0x3ff4ec54d65c96d9	1.307698094702053
133	0x408a86cc03d14697	848.8496166562717
134	0x3ff040140aa01673	1.0156441130688136
135	0xc08b257bb32343ad	-868.6854002718952
136	0x3fc974b45252d156	0.19887403506948925
137	0xc051b89159fe28ca	-70.88387155361411
138	0x3fd519b84aaf8a22	0.3296948174812845
139	0x4076d12b46c7a870	365.073065547861
140	0x3f9ea38cd6190d1a	0.029920769278999428
141	0xc07fd9b6ad0ce399	-509.6070986274222
142	0x3fd48009d90e7b3c	0.3203148479168936
143	0xc05b6c1ba5a4659e	-109.68918744139089
144	0x3fc65bedd580a86b	0.17468045163088006
145	0x4077d4692ce399b2	381.2756775751724
146	0xbfa25f652c723bc0	-0.0358840576892514
147	0x40757cd0b0b1bae6	343.8009497587758
148	0xbfba390eff63c5e8	-0.10243314490414657
149	0xc046573834d96d96	-44.68140278450589
150	0xbfa50a23c6868e16	-0.04109298513801833
151	0xc0773b8be34fff4d	-371.7216523289579
152	0x3fb3713495d9cb0a	0.07594612749543841
153	0xc0782aa21c15e826	-386.66457756574016
154	0x3fc913ca898c541d	0.1959164783117168
155	0xc05adb63e8074974	-107.42797280036558
156	0x3fd2df475aabdb7f	0.29487785200711153
157	0x40702bb183906c9d	258.7308383599828
158	0x3fd7864f221b7f85	0.36757257777025415
159	0x407cda2b88ad6e70	461.63562839266433
160	0x3fdab4113ce34f2a	0.4172404379471454
161	0x40758941d7302944	344.57857436001746
162	0x3fdcc554d0672580	0.4495441470322348
163	0xc0501577ea130750	-64.33544399126299
164	0x3fde119b760c749c	0.4698246624773874
165	0xc08004541e36e6b7	-512.541073254505
166	0x3fdedccaa3104cd3	0.4822260467928576
167	0xc0807779352f2611	-526.9341834720127
168	0x3fdf568e34af4fe9	0.4896579279422882
169	0x408140f24deb49ba	552.1183126813769
